__________________________________________________________________________________________________
Layer (type)                    Output Shape         Param #     Connected to                     
==================================================================================================
input_21 (InputLayer)           (None, 48, 48, 1)    0                                            
__________________________________________________________________________________________________
conv2d_120 (Conv2D)             (None, 48, 48, 64)   640         input_21[0][0]                   
__________________________________________________________________________________________________
batch_normalization_80 (BatchNo (None, 48, 48, 64)   256         conv2d_120[0][0]                 
__________________________________________________________________________________________________
activation_79 (Activation)      (None, 48, 48, 64)   0           batch_normalization_80[0][0]     
__________________________________________________________________________________________________
conv2d_121 (Conv2D)             (None, 48, 48, 64)   36928       activation_79[0][0]              
__________________________________________________________________________________________________
batch_normalization_81 (BatchNo (None, 48, 48, 64)   256         conv2d_121[0][0]                 
__________________________________________________________________________________________________
activation_80 (Activation)      (None, 48, 48, 64)   0           batch_normalization_81[0][0]     
__________________________________________________________________________________________________
conv2d_122 (Conv2D)             (None, 48, 48, 64)   36928       activation_80[0][0]              
__________________________________________________________________________________________________
add_39 (Add)                    (None, 48, 48, 64)   0           conv2d_122[0][0]                 
                                                                 conv2d_120[0][0]                 
__________________________________________________________________________________________________
max_pooling2d_14 (MaxPooling2D) (None, 24, 24, 64)   0           add_39[0][0]                     
__________________________________________________________________________________________________
batch_normalization_82 (BatchNo (None, 24, 24, 64)   256         max_pooling2d_14[0][0]           
__________________________________________________________________________________________________
activation_81 (Activation)      (None, 24, 24, 64)   0           batch_normalization_82[0][0]     
__________________________________________________________________________________________________
conv2d_124 (Conv2D)             (None, 24, 24, 128)  73856       activation_81[0][0]              
__________________________________________________________________________________________________
batch_normalization_83 (BatchNo (None, 24, 24, 128)  512         conv2d_124[0][0]                 
__________________________________________________________________________________________________
activation_82 (Activation)      (None, 24, 24, 128)  0           batch_normalization_83[0][0]     
__________________________________________________________________________________________________
conv2d_125 (Conv2D)             (None, 24, 24, 128)  147584      activation_82[0][0]              
__________________________________________________________________________________________________
conv2d_123 (Conv2D)             (None, 24, 24, 128)  8320        max_pooling2d_14[0][0]           
__________________________________________________________________________________________________
add_40 (Add)                    (None, 24, 24, 128)  0           conv2d_125[0][0]                 
                                                                 conv2d_123[0][0]                 
__________________________________________________________________________________________________
max_pooling2d_15 (MaxPooling2D) (None, 12, 12, 128)  0           add_40[0][0]                     
__________________________________________________________________________________________________
batch_normalization_84 (BatchNo (None, 12, 12, 128)  512         max_pooling2d_15[0][0]           
__________________________________________________________________________________________________
activation_83 (Activation)      (None, 12, 12, 128)  0           batch_normalization_84[0][0]     
__________________________________________________________________________________________________
conv2d_127 (Conv2D)             (None, 12, 12, 256)  295168      activation_83[0][0]              
__________________________________________________________________________________________________
batch_normalization_85 (BatchNo (None, 12, 12, 256)  1024        conv2d_127[0][0]                 
__________________________________________________________________________________________________
activation_84 (Activation)      (None, 12, 12, 256)  0           batch_normalization_85[0][0]     
__________________________________________________________________________________________________
conv2d_128 (Conv2D)             (None, 12, 12, 256)  590080      activation_84[0][0]              
__________________________________________________________________________________________________
conv2d_126 (Conv2D)             (None, 12, 12, 256)  33024       max_pooling2d_15[0][0]           
__________________________________________________________________________________________________
add_41 (Add)                    (None, 12, 12, 256)  0           conv2d_128[0][0]                 
                                                                 conv2d_126[0][0]                 
__________________________________________________________________________________________________
average_pooling2d_4 (AveragePoo (None, 6, 6, 256)    0           add_41[0][0]                     
__________________________________________________________________________________________________
flatten_4 (Flatten)             (None, 9216)         0           average_pooling2d_4[0][0]        
__________________________________________________________________________________________________
dense_1 (Dense)                 (None, 1024)         9438208     flatten_4[0][0]                  
__________________________________________________________________________________________________
dense_2 (Dense)                 (None, 7)            7175        dense_1[0][0]                    
==================================================================================================
Total params: 10,670,727
Trainable params: 10,669,319
Non-trainable params: 1,408
__________________________________________________________________________________________________
